Assignment 2/starter_code_torch/results/q5_linear/model.weights.pt (torch, 3047 bytes, 2 tensors)

weight f4 [5, 100]
000000 ab 07 17 bd b3 5f 7c bd 58 45 b3 3e 11 8b 58 be
       -0.036872547 -0.061614703 0.35013843 -0.211468
000010 2f 07 b6 be 3f dd 81 be 9a 08 e5 bd e0 0c 80 3e
       -0.35552356 -0.2536411 -0.11183281 0.25009823
000020 5d bc 1b bd e1 15 19 be 68 23 85 be 10 6b 4e be
       -0.038021434 -0.14949752 -0.26003575 -0.20158029
000030 71 8f 3d be b2 4b a7 3d 3c 4f 33 be 5d 60 d6 3d
       -0.1851175 0.081687346 -0.17510694 0.104675986
000040 57 0e 47 3e 63 13 a2 3c 44 23 50 3c 33 38 18 be
       0.19439064 0.019784635 0.0127037205 -0.14865188
000050 7b cc bc be 1f 1e 02 be 51 dd af 3e c9 93 11 3f
       -0.36874756 -0.12706803 0.3434854 0.5686613
000060 55 1c 3d 3e 68 79 27 bd 2c f3 87 be 2d 09 be be
       0.18467839 -0.040887266 -0.26552713 -0.37116376
000070 1a 1d 2d 3e 6e 16 82 3e d8 2a 8f 3e 06 80 9b 3e
       0.16905633 0.25407737 0.27962375 0.30371112
000080 7d ef 3d be d2 57 46 be 6a 76 47 be 64 5f 82 be
       -0.18548389 -0.19369438 -0.19478765 -0.25463402
000090 32 17 bc 3e bf 35 68 be ea 17 36 be 6d 27 58 be
       0.36736447 -0.22676753 -0.1778256 -0.2110879
0000a0 b0 f3 9e 3d 7e a0 ef be ff c3 70 be da 58 dc be
       0.077613235 -0.46802133 -0.23512267 -0.43036538
0000b0 77 39 1e 3e 40 4a 75 3e 74 2d a7 be ec f8 8b be
       0.15451609 0.23954105 -0.32651865 -0.2733835
0000c0 cb ab 98 be 96 60 c9 be 8a 80 6b 3e ae 2f 2b 3d
       -0.29818568 -0.39331502 0.22998253 0.041793518
0000d0 53 fa 0b be 2b 7f 99 be ee 10 e6 bd df b2 d6 bd
       -0.1366971 -0.29979834 -0.11233698 -0.10483336
0000e0 3f 90 e3 bd d2 19 b4 be 59 80 d9 be bc 1f d8 be
       -0.11111497 -0.3517595 -0.42480734 -0.4221171
0000f0 54 59 a8 be bf a4 96 be df 84 65 be 6b e9 db 3d
       -0.32880652 -0.29422566 -0.22413968 0.1073788
000100 ec 56 17 3e a6 eb 92 3e f2 74 0a be 2d 40 04 3f
       0.14779252 0.2869541 -0.13521174 0.51660424
000110 b8 38 3f 3d b0 f5 73 3e f3 ac ac bd ee 03 8d 3e
       0.04668495 0.23824191 -0.08431425 0.2754206
000120 bc db c7 3d 35 ee 8d be 66 a7 ed 3e 39 eb eb 3e
       0.09758708 -0.277208 0.46416777 0.46077898
000130 62 bc d2 be 5c 5e 7a be 4b c7 1f 3e 60 18 1e 3f
       -0.4115935 -0.24450058 0.15603368 0.61755943
000140 f3 ec 22 be 1e 02 9d 3d 4b 7a f6 3e 40 c9 28 3f
       -0.15910701 0.076664194 0.48140177 0.65932083
000150 4a 26 84 3e 3c 39 80 3d 77 58 f4 bc 80 a9 dd be
       0.25810462 0.062609166 -0.02982734 -0.4329338
000160 9d dd 50 be dc 5a 41 be 73 3c e4 3d eb 48 74 be
       -0.20397039 -0.18882316 0.11144342 -0.23855941
000170 1d 10 ad 3d e9 60 aa 3d 0a a8 8f be 05 72 11 bf
       0.08450339 0.083192654 -0.2805789 -0.56814605
000180 74 95 c4 be fc 9c 34 be 90 81 78 3e d3 c6 bc 3e
       -0.38395274 -0.1763801 0.24268174 0.3687044
000190 7f 6e a7 be 45 97 21 bd 4b c4 7e 3e b2 ec 09 3f
       -0.3270149 -0.039450902 0.24879567 0.53876793
0001a0 b0 e2 05 be b8 ef 25 bd d6 b3 88 3e e1 ff cd 3c
       -0.13074756 -0.040511817 0.26699704 0.025146427
0001b0 16 a8 af 3d 62 9a 45 3e f4 d5 4f bd 68 2d 04 3e
       0.08576982 0.19297174 -0.05074115 0.12907946
0001c0 da d5 e8 3d 75 1d 9a be c0 89 2f bd 66 f0 ff 3e
       0.11368914 -0.301006 -0.042855978 0.49988097
0001d0 66 ce 71 3e 67 ce a0 be 42 dd 35 3c 4b b0 06 3f
       0.23613891 -0.31407472 0.011100115 0.5261275
0001e0 53 8e 12 bc ec 17 a0 be b4 4b f9 bd 4f fa 18 3f
       -0.008945066 -0.3126825 -0.12172642 0.5975694
0001f0 5c c3 4a 3e e6 4a fe 3d 2f 4c 7c bc 7e 70 85 be
       0.19801086 0.124166295 -0.015399023 -0.26062387
000200 28 a7 4b bd 62 d6 e5 bc 54 a0 70 be bb c7 c2 3e
       -0.04971996 -0.028056327 -0.2349866 0.38043007
000210 37 12 84 be 3c 3b 20 bd 02 60 8b be 6f 1d 47 3e
       -0.25795147 -0.03911899 -0.27221686 0.19444822
000220 01 86 ae 3e e0 8d 83 bd f5 69 1d 3e 22 5f 02 3f
       0.34086612 -0.06423545 0.1537245 0.5092641
000230 60 08 d6 3c 28 70 4d 3d 54 8d a4 bd 55 f7 9c bd
       0.02612704 0.05015579 -0.08034769 -0.07664362
000240 c5 b7 37 3e 05 e1 8c be 6b b8 73 be f9 83 cb 3d
       0.17941196 -0.27515426 -0.23800819 0.09937281
000250 dc f2 3c be 2e 75 87 3e bd cb 7c be fb 6f 31 3f
       -0.18452018 0.26456589 -0.24687095 0.69311494
000260 a5 1e 6f be 9d 02 99 be 17 4f 7b 3d 9c 9f 9c 3e
       -0.23351534 -0.29884806 0.061354723 0.30590522
000270 b7 79 4b 3d 1a 40 c3 bc 4b f7 98 be 48 1b f1 be
       0.049676623 -0.023834277 -0.2987617 -0.47091126
000280 04 b3 78 3d fc 53 12 bf f3 eb 93 be cd 8d 96 be
       0.060717598 -0.571594 -0.28890952 -0.2940506
000290 3d 1d 89 bd f3 ed 96 be 90 47 a6 3e f6 e1 fc 3e
       -0.0669503 -0.29478416 0.32476473 0.49391145
0002a0 1c 54 c3 be 3f fd 87 bd ad a5 7d be 71 0d d4 3e
       -0.38150108 -0.066401 -0.24770232 0.41416505
0002b0 cc ab cb be 77 c9 24 be 04 e3 2f be c9 be 6e 3f
       -0.39779508 -0.16092478 -0.17176443 0.93259865
0002c0 46 9f d2 be 49 de 65 be 79 cc 83 3c 5a 3f 48 3e
       -0.4113714 -0.22448076 0.016088711 0.19555417
0002d0 0e 74 a7 3b 48 2f d9 3b 06 7b 94 be ed cd 0a 3f
       0.0051102703 0.006627951 -0.2900011 0.5422047
0002e0 45 77 a4 be 7d 95 a5 be b1 0c bd 3b 45 82 68 bd
       -0.32122245 -0.32340613 0.005769335 -0.05676486
0002f0 a7 4a b0 3e a1 82 4b 3d 7d 7f fa bd 49 e5 f2 bd
       0.34431955 0.049685124 -0.12231348 -0.11860139
000300 5b 1e 1c be e2 32 36 3e 4d 8e ce be 67 f5 04 bf
       -0.15245955 0.17792848 -0.40342942 -0.51936954
000310 e9 29 24 3e 3a 42 58 3e 05 32 06 3d da e1 2d 3e
       0.16031612 0.21119013 0.032762546 0.16980687
000320 3b 76 2b 3e 20 88 8c 3e 91 cc 3f be cf b3 47 3f
       0.1674432 0.27447605 -0.1873038 0.7800874
000330 1c a6 f7 3b 07 a4 b6 bd f5 69 e9 bd 51 3c 14 3f
       0.0075576436 -0.089180045 -0.11397163 0.57904536
000340 8c cb 48 be f7 91 4d be 8a 19 a1 bd b2 6b 97 bf
       -0.19608897 -0.20075212 -0.07866199 -1.1829741
000350 76 f6 82 3d 87 65 88 be b4 1e ff 3d 86 af ee 3e
       0.06394665 -0.2663996 0.12457028 0.4661829
000360 99 fe d7 be 91 2a 8f be b9 c6 a8 bd 90 78 fc be
       -0.4218643 -0.27962163 -0.08241028 -0.49310732
000370 fc 95 22 bd 16 0a 14 3d 5a 96 3f 3f 41 b9 c3 3f
       -0.039693817 0.03614243 0.74838793 1.529091
000380 9c 9a bf be ae 01 be be b9 59 6a be 85 e7 9b bf
       -0.37422645 -0.37110656 -0.22885789 -1.2180029
000390 e8 35 25 3e fc 34 7e 3c 3a c1 97 bd b4 b6 78 3f
       0.16133845 0.015515562 -0.07409902 0.9715378
0003a0 55 b4 89 3d 57 d3 a8 be 71 1c ec be bd 2d bf be
       0.06723849 -0.3297374 -0.4611545 -0.37339583
0003b0 cd a2 c1 3e 3f d7 87 be 5d 3b 37 be 12 7c 60 bf
       0.3781952 -0.26531407 -0.17893739 -0.87689316
0003c0 eb ae 4f 3c 3f 96 28 be 29 37 92 be c0 38 d2 bf
       0.012675981 -0.16463564 -0.2855771 -1.6423569
0003d0 c6 4b 06 be 3c 3a cc bc b7 63 3c be d0 e3 ff be
       -0.13114843 -0.024930112 -0.18397413 -0.49978495
0003e0 c9 17 2a be 22 bd 93 3e bc a0 82 be 9b 67 49 be
       -0.16610636 0.28855234 -0.25513256 -0.19668429
0003f0 b2 ba 9b be d9 f5 80 3d 73 48 ce 3e 02 40 79 3f
       -0.30415875 0.06296892 0.4028965 0.97363293

bias f4 [5]
000000 bb 0e 1f 40 a9 b1 aa 3f 75 8f 84 40 f4 4e b8 3f
       2.485274 1.3335468 4.142512 1.4399095
000010 91 20 f2 3f
       1.8916188
